checkpoints/BieqAbdL_checkpoint.pt (torch_old, 101994 bytes, 5 tensors)

attn_net.hidden.weight f4 [96, 192]
00000000: 282b c5ba 88b9 25bc 140c 493d b780 203c
00000010: f9a3 c6bd fcfd e03d 3c11 1a3d db87 a33d
00000020: 51bc 723d dad1 693d 3451 26bd fa0f 81bd
00000030: dfe4 d6bd 01f7 953c 94f2 9e3d e44b b8bd
00000040: ba2c 0abc b0d2 50bd 720e 9c3d 74cf 403a
00000050: ced3 68bd a015 73bc 9882 08bd 2503 9f3d
00000060: 2c56 17ba 66d5 b8bd bac5 5fbd c61b 08be
00000070: c0b9 c4bd fd2d 373d c633 b1bd 63d8 1fbd
00000080: 8c3e a5bc 5f67 9bbd 84dc 853d fa57 c23d
00000090: d3bb 19bd 88bf 4abd 02e4 babd db23 ca3d
000000a0: 80c3 be3c 6614 64bd a81b c0bb 5b03 c9bd
000000b0: 6c00 1e3d 58a9 703d 7643 a23d f8f3 b4bd
000000c0: c355 63bd e89d bf3d 58ae b4bd 4334 4f3d
000000d0: d5b0 81bd 8e40 713d d233 bdbd dc1f bfbd
000000e0: a186 27bd 6eda e03d 65d7 99bc 1d1d a1bd
000000f0: c0d6 adbd a5e2 73bc 76d0 9cbd e21e 2dbd
00000100: 2e70 cbbc 1186 c7bc 95ac 233d dd09 8f3d
00000110: f3e5 44bd 8f35 a63b ffc6 033c 7e6d 9b3b
00000120: f7da 643d 0583 853c 739e 85bd c57d 62bd
00000130: 1cb9 cabc 2710 223c f207 9c3d bd58 b5bd
00000140: a9f0 583d dd3f 2e3d 45bf 7e3d 3cb0 003d
00000150: 4272 80bd 9b5b b13b 3d3b 1abd 8788 3bbc
00000160: 5cee b33c 017e 5abb 1cab 5dba 2e6d 6ebd
00000170: 3205 8bbc 59b8 4ebc 19ad a5bd 4d1b 3e3d
00000180: e24a 86bc 0ba5 6ebd 6834 583d 3b74 e23c
00000190: 8430 babd f342 85bd a609 b5bd f09a 4cbc
000001a0: 6c0c 6fbd 38c3 46bd 74ab 553d 7f0f 57bd
000001b0: b6f1 83bd a33b 2b3d 9266 483d 1b15 98bb
000001c0: 7b71 88bc a196 93bc 7b9e c6bd 57d6 41bd
000001d0: bd46 febc adb0 453d fc68 bbbd 3561 d5bc
000001e0: b9a1 44bd b3c5 803d 1a92 723c 62bd a13c
000001f0: 83b7 39bd 9572 90bd 4f62 01bd 58c0 963c
00000200: 208c a8bc aa50 0fbc 5c81 443d d633 bf3c
00000210: c478 c9bd d976 bd3d 508f 353d 6cce 54bc
00000220: ac9e 633d e2bb 2c3d 44ae 9bbd 2078 bdbc
00000230: 0b09 cdbd 5b19 be3c bdc9 c93d fb21 a0bd
00000240: c030 383d ab90 ecbb 5c44 123d ce8a eb3c
00000250: 63ba edbc 504b d2bc ce93 72bd 7b91 7b3d
00000260: 0d1f 4a3d f912 0bbd dea0 1dbc 9511 f1bd
00000270: 2c24 40bd 7ab8 2d3b 01df 94bd 60b7 6abc
00000280: b3ec 2fbc 39d8 72bd 68c0 943d 76dc 8b3d
00000290: a549 c1bd 5432 97bd 8eb2 2cbd 1af1 203d
000002a0: 82bf f6bc c64a 6cbd cc1e c63a 1a01 93bd
000002b0: 03e1 30bb e71d 1bbd 9f72 c63d 847a d8bc
000002c0: 36ee 42bb 43b4 753d d917 93bd 17b6 5d3c
000002d0: 7088 6fbd e9d9 a83d 5b23 a0bd 01d5 2abd
000002e0: b44c d83c 7fc0 b73d d3f9 cf3c 8b41 37bd
000002f0: fcea 97bd 559f 26bd 4157 6ebd beea 343c
00000300: d38f 04bd da7f 0dbd 3b9e 24bd ceed 1e3e
00000310: bee4 efbb 1199 1d3d 541e 253c b023 03bd
00000320: d418 44be c616 9bbd ff74 973d cae1 973c
00000330: 6c8e ccbc a42f e0bc ffa8 863c e197 04bd
00000340: 0212 d1bc a27d a63c de98 7bbd e8ae 47be
00000350: 67aa a03d 2da9 b23c c8d2 2b3d 5038 3c3d
00000360: 0180 a9bc 4866 a2bb 68a6 05be 64b9 60bd
00000370: f004 06bd 85fd bcbb 72c4 55bd 8e2d 633d
00000380: cc23 913d a4e6 ca3d 0d36 30bd bf50 4a3d
00000390: 43eb dfbd e5f3 223d 9a19 353c 3a2c 413d
000003a0: 967a 5a3b dda6 d03d 7105 20bd 8c11 1e3d
000003b0: 9cb3 e1bc a8c7 6ebd 0abf 143e 5630 98bb
000003c0: 4c62 2a3e 11d4 0d3c 5024 963d bbdc 20be
000003d0: f955 153d 50b9 87bd 9a1e a53d 8fb1 c0bc
000003e0: b8c1 b93b 8c3c 693d d8ab 553d e86c 0b3d
000003f0: 0ac3 4f3e 0210 953d 7ad7 bd3d d27b c4bb
-0.0015042769 -0.010115035 0.049083784 0.009796313 -0.09699244 0.10985944 0.037614092 0.07984897
0.059261624 0.057084896 -0.040604785 -0.063018754 -0.104928724 0.018306257 0.07761112 -0.0899885
-0.008433515 -0.050982177 0.07619943 0.00073551317 -0.056842618 -0.014836699 -0.03332767 0.07764272
-0.00057730335 -0.090250775 -0.054631926 -0.13291845 -0.096057415 0.044721592 -0.08652453 -0.03902472
-0.020171426 -0.07588076 0.06536201 0.094894364 -0.03753264 -0.049499065 -0.0912552 0.0987012
0.023286581 -0.055683516 -0.005862672 -0.09815093 0.03857462 0.05875525 0.079230234 -0.08835596
-0.05550171 0.0935629 -0.08822316 0.05058695 -0.06332556 0.058899455 -0.092383996 -0.093322486
-0.040899877 0.10979162 -0.018779466 -0.07866881 -0.08488226 -0.014885579 -0.07656948 -0.04226578
-0.024833765 -0.02435592 0.03995951 0.06984303 -0.04807086 0.0050723027 0.00804305 0.004743277
0.055872884 0.016297827 -0.065243624 -0.055295724 -0.02474647 0.009891546 0.07618703 -0.08854816
0.052963886 0.042541374 0.062194128 0.03141807 -0.06271793 0.0054125316 -0.03765415 -0.011446125
0.021964245 -0.0033339264 -0.0008455978 -0.05820959 -0.01697025 -0.012617194 -0.080896564 0.046412755
-0.016393129 -0.058262866 0.052784353 0.027643314 -0.09091285 -0.0650691 -0.08839731 -0.012488112
-0.058361456 -0.04852602 0.052165464 -0.052505013 -0.06442587 0.04180492 0.048925944 -0.004641188
-0.016655674 -0.018016161 -0.096981965 -0.04732355 -0.03103959 0.048264194 -0.091508836 -0.026047328
-0.048005793 0.06287708 0.014805341 0.019743625 -0.045341026 -0.07053105 -0.031587895 0.018402264
-0.02057463 -0.008747259 0.04797493 0.023340147 -0.09837487 0.09251184 0.044326127 -0.012988668
0.055571243 0.042171367 -0.07601598 -0.02312857 -0.100114904 0.02320545 0.09852932 -0.07818981
0.044968367 -0.007219394 0.035709724 0.02875271 -0.02901954 -0.025670677 -0.05922299 0.061418038
0.04934602 -0.03395364 -0.009620873 -0.11770932 -0.046909496 0.0026507662 -0.07269097 -0.014325947
-0.010737586 -0.059288237 0.07263261 0.06829159 -0.09437875 -0.07382646 -0.04216247 0.039292432
-0.030120615 -0.057688497 0.0015115379 -0.071779445 -0.0026989586 -0.037870314 0.09689831 -0.026425608
-0.0029744036 0.059986364 -0.07182283 0.013532183 -0.058479726 0.08244688 -0.078192435 -0.041707043
0.026403762 0.089722626 0.02538768 -0.04474024 -0.074178666 -0.040679295 -0.05818868 0.011042295
-0.032363724 -0.034545757 -0.040189963 0.15520403 -0.0073209694 0.038476054 0.010078032 -0.032016456
-0.19150096 -0.07572703 0.07395362 0.018540282 -0.024970256 -0.027366467 0.016438005 -0.032371406
-0.025521282 0.020323578 -0.061425082 -0.19500315 0.07845002 0.021809185 0.041949064 0.04595214
-0.02069092 -0.0049560405 -0.1305176 -0.054864302 -0.032719553 -0.0057675266 -0.052189298 0.055463366
0.07086906 0.099072725 -0.043020297 0.04939341 -0.109335445 0.039783377 0.011053467 0.04716132
0.0033337227 0.10188077 -0.03906769 0.038590953 -0.027551465 -0.058295876 0.14526 -0.004644434
0.1663906 0.008656518 0.07331145 -0.15709202 0.036458943 -0.066271424 0.080624774 -0.023522167
0.005668845 0.056942508 0.052165836 0.034039408 0.20289245 0.07278444 0.092696145 -0.005996206

attn_net.hidden.bias f4 [96]
00000000: 29af 19be 3e59 893e d2f5 5abd 815e 143d
00000010: 7095 ca3d 5e82 e1bc 49a8 85be 6834 9b3c
00000020: e965 5c3c ddcc 3dbd f0ab 28bd daeb c83c
00000030: 7fe4 163d c7cb 75bd cb14 65be 403f 293e
00000040: 519b 1abd 626e c13c 92d6 053d 0989 e0bc
00000050: 1c1f d1bd 8faa 83bc a8f4 15bd 7ef2 f9bc
00000060: d816 74bd 3d7b 2fbe a163 80be 3029 00be
00000070: 2106 023c e733 3f3c 20a4 bc3e c2b1 993b
00000080: f8a6 58bc 2ab2 1b3d 24e8 373c d67f 043e
00000090: 72a1 093d 5aad 81bd d324 9cbe cdd1 83be
000000a0: ab57 873e a766 b93c a407 4dbc b1e2 273e
000000b0: 6ba3 bf3d 55ab cc3d e904 263d 9389 26bc
000000c0: 5739 a13e 8bed 0ebd ac61 4fbc 72a9 e43d
000000d0: de04 adbc e05e 983c 9060 253d b811 53bd
000000e0: 09b8 a33d 2fe9 00ba b67f 093d beb7 1c3e
000000f0: 9d81 2bbd e955 d43d 11af 373e 3da6 6abc
00000100: f153 7fbd 1e4d 713c c5a0 5bbe 6590 1a3d
00000110: 89f6 c6bb 30ec f8bc d00f e73b f0ae 7dbd
00000120: 04a2 efb9 6c99 58be c517 4dbe 7a96 c43c
00000130: 051d 20be 9770 8f3c fa81 5bbd caa6 58be
00000140: 1ebf b63d 8954 0f3e 4213 8c3d f3e2 84ba
00000150: f222 323e c7ec 813d 1ee7 bcbd da83 6e3c
00000160: f8fa 91bd f3a7 163d 4177 a03e 4bfa 573d
00000170: 2542 54bd a390 cdbc c048 9abd 1c91 f93c
-0.15008225 0.268259 -0.05345709 0.03622294 0.09891784 -0.027527984 -0.26104954 0.018945888
0.013452032 -0.04633795 -0.041179597 0.024526525 0.036839005 -0.06000879 -0.22371213 0.16528034
-0.037745778 0.023612205 0.032675333 -0.027409093 -0.10211012 -0.01607254 -0.036610276 -0.030511137
-0.059592098 -0.17136855 -0.2507601 -0.12515712 0.007936032 0.011670089 0.36843967 0.00469038
-0.013223402 0.038011707 0.01122478 0.1293939 0.033601232 -0.06331892 -0.30496845 -0.25746003
0.26434073 0.022631956 -0.012514029 0.1639507 0.093573414 0.099936165 0.040532026 -0.010164636
0.3148906 -0.034894507 -0.012657564 0.11165132 -0.021120485 0.018599927 0.040375292 -0.05153057
0.07994086 -0.00049175596 0.03356906 0.15304467 -0.041871656 0.103679486 0.17937876 -0.014321861
-0.062335912 0.014727859 -0.21448047 0.03773536 -0.0060718697 -0.03038606 0.0070514455 -0.06193441
-0.00045706343 -0.21152276 -0.20028599 0.023997534 -0.1563607 0.017509742 -0.053590752 -0.21157375
0.089231715 0.13997091 0.06839611 -0.0010138437 0.17396143 0.0634399 -0.092237696 0.014557803
-0.071279466 0.036781263 0.31340984 0.052728932 -0.051820893 -0.025093382 -0.07533407 0.030464701

attn_net.out.weight f4 [64, 96]
00000000: 186f bd3c de67 8cbd 569f 9fbc 5a7b 253c
00000010: 460d bdbc 1229 05bc 71d1 1b3d 79dd adbc
00000020: 6c74 fe3c 22ac cd3c ddbc 8d3c 973b 64bc
00000030: 5941 d7bc 139a 203d 62f5 db3b b44f 8f3b
00000040: ead0 ee3b eee9 f03c 91c1 24bd 905f 8cbc
00000050: 87d0 76bd f146 dbbc 87db a43c e126 033c
00000060: 617c 6cbc c45f a839 3f0c 1b3d febd 803c
00000070: 5a90 e53c fa89 4d3c 7320 3ebd 2ec0 183d
00000080: cf99 803c d77a c1bc 0e1b adbc f3eb 9f3b
00000090: ca19 b33c 240e cb3c 8e6c b13c 69c9 933c
000000a0: 555b 333b f8f1 0d3d 9957 c8bc 1c2d 9dbc
000000b0: c1be e6bc 1c54 d53c fdbe 973c d7b4 98bc
000000c0: 3895 ef3b 9be5 1a3c 74de 88bc 3fe6 3abd
000000d0: 5fc9 833c c48f 173d 3e1f ecbc 9e4b 84bc
000000e0: c392 dfbb 6e77 b03c 992e 813b b8cf e3bc
000000f0: 179f b7bc 7c56 54bd 593a 35bd 0c14 e8bb
00000100: 10fd b23c 9803 ed3b 1c81 88bd 5a5f 59bc
00000110: 6ef9 973b 0958 4c3c 7197 14bd 9069 aebc
00000120: 8d67 c7bc fe2d 7b3c 3ad8 21bb 6176 1d3c
00000130: c826 52ba 9e6b fc3b 5750 51bd ce4f 32bd
00000140: baef 8dbc 6e7a 483c d8f0 9c3c fc77 41bc
00000150: cb0c 39bd e010 a53c 9ca1 a3bc b493 f1bc
00000160: c70f d13c 4eb6 a23c 8954 4bbd cd52 063d
00000170: ef37 f53c 74dd 9a3c 71ca 93bd 6c49 15bc
00000180: 74fd d0bc 1fdc 9bbc 4ab0 15bc a4d7 f93b
00000190: 80e5 aabc d13f 013d 3a36 3b3c 2d4a ec3c
000001a0: 9613 b53c 0c0b 513c c2a6 f6bb f21d d43b
000001b0: ec98 61bc 3ad3 bf3c 0eb9 c8bc db43 a23c
000001c0: 7662 8bbc a20f 79bc 0ab5 c6bc ae16 9d3c
000001d0: b2c0 cb3c c43d 1cbd dfed 8cbb c9d7 483c
000001e0: 4a09 5c3b fa11 c9bc b00a bb3c b96a ea3c
000001f0: ba53 573c 92ee fa3b 16c9 ba3b a006 bdbc
00000200: 7000 7d3c b1ab c53c f907 443c 2a7c 1d3c
00000210: 6017 08bc f806 2dbc 726f 043b 0627 9fbc
00000220: 1274 ed3b 0a21 9c3c ceaa 48bc a3a8 1abd
00000230: 5536 0b3c 45bd 40bd c7fe 83bc 05c6 953c
00000240: 8c81 d7bc 1f9b 7e3c 539e 20bc c9ba 18bd
00000250: 8df6 bcbc e0ab b0bc 608d b4bc 8340 bc3c
00000260: 153c 00bd 3fcf 223b d077 9c3b afad 7abc
00000270: be72 a53c b71a 223d 3f8e 42bd f4d3 ec3c
00000280: b153 b0bc 7a34 a33c 0854 95bc a070 9d39
00000290: 043d f93c ca40 ab3c e85a 953c 624f ba3c
000002a0: e3c8 103d 7816 46bd 7145 e7ba e166 81bc
000002b0: 2b02 34bd 6c58 ad3c 8b68 bf3c 0b41 cdbc
000002c0: acc9 50bc 93d7 aabc c7e7 e4bc 5950 b5bc
000002d0: 2aae 48bc 9d52 51bc e250 78bc d7c5 f2bc
000002e0: 9cf5 89bc 90a6 3fbb cc6b 0cbb 3648 073d
000002f0: dcb7 373b 2eea ad3c 03ae 2bbd ab6a 5d3c
00000300: b122 32bd 78a4 e23c a264 87bc c065 77bc
00000310: c07e 31bd 6ef3 05bc bd38 78bd f0ed a9bc
00000320: c07c a4bc 85be 9f3c 8aaa aebd 76e7 2e3d
00000330: 294c 3c3c e0b8 833c 3896 9ebd 2b9a 843c
00000340: a2de 8dbc 482d cabc 9aaf 583c b3a4 043c
00000350: d728 65bd dd50 103c 69d1 3bbc da25 aa3c
00000360: a176 52bc 6a20 36bd ea21 2bbd e64e d1bc
00000370: 87b6 70bd d8dd 70bc 5a9b e3bd bd91 603c
00000380: 51a5 013c 9334 e63b 8755 c83c a803 9ebd
00000390: 80ee abbc 5b74 76bd 2cdd 96bc 8d2c 303c
000003a0: 0631 b4bc fe86 ac3c 1bfb f33c b7fb 84bd
000003b0: 4981 37bc cdb4 a6bd ae8e 80bc 409f 01bd
000003c0: 56ab c6bd 32a0 3bbc 2e50 bc3c cc05 30bd
000003d0: 1938 7cbc bb94 8e3c 9dac c5bc 0684 b63c
000003e0: 106d 49bd 4e68 22bc 6feb 3d3d ade9 f3bc
000003f0: 5675 c53c ce51 b93c 0621 f3bc aa89 cebd
0.023124263 -0.068557486 -0.019485157 0.01010021 -0.023077618 -0.008127468 0.038041536 -0.02122377
0.031061374 0.025106493 0.017301971 -0.013930223 -0.026276277 0.039209437 0.0067126015 0.004373515
0.007288088 0.029408421 -0.04022366 -0.017135412 -0.06025746 -0.026767226 0.02012421 0.008004875
-0.014433951 0.00032114808 0.037853476 0.015715595 0.028022934 0.012545103 -0.046417665 0.03729265
0.015698342 -0.023618145 -0.021131065 0.0048804223 0.021862883 0.024787016 0.021658208 0.018040376
0.002736767 0.034654588 -0.024455832 -0.019186549 -0.02816713 0.026041083 0.018523687 -0.018640919
0.0073114894 0.009454156 -0.016707636 -0.045629736 0.016087232 0.03700234 -0.028823491 -0.016149338
-0.0068229153 0.021541324 0.0039423225 -0.027809009 -0.022414727 -0.05184029 -0.044245098 -0.007082468
0.021849185 0.0072330944 -0.06665251 -0.0132673625 0.0046378886 0.012472161 -0.03627724 -0.02129057
-0.024341369 0.01533079 -0.0024695531 0.009610743 -0.0008016643 0.0077032587 -0.05110201 -0.04353314
-0.017326225 0.012236221 0.019157812 -0.011808392 -0.045178216 0.020149648 -0.019974522 -0.029489376
0.025520219 0.01986232 -0.049641166 0.03279381 0.029933898 0.018904425 -0.07216347 -0.009111743
-0.02551148 -0.01902586 -0.009136269 0.0076245833 -0.020861387 0.031555 0.011426503 0.028843964
0.022104066 0.012758981 -0.0075272033 0.0064732963 -0.01376937 0.02341615 -0.024502303 0.019807747
-0.017014723 -0.015201481 -0.024256248 0.019175854 0.024872158 -0.03814484 -0.0043008174 0.012258478
0.0033574873 -0.024544705 0.022832245 0.028615342 0.013142521 0.0076578343 0.005700241 -0.023074448
0.015441999 0.02412972 0.011964791 0.009612123 -0.008306354 -0.0105607435 0.0020208028 -0.019427788
0.0072465027 0.019058723 -0.012247754 -0.03775848 0.0084968405 -0.0470555 -0.016112698 0.0182829
-0.02630689 0.015539913 -0.009803372 -0.037287507 -0.023066783 -0.021566331 -0.02204007 0.02297998
-0.0313073 0.0024842767 0.004775025 -0.015300198 0.020196315 0.03957626 -0.047498938 0.02890966
-0.021524282 0.019922484 -0.018228546 0.00030029286 0.030424602 0.020904917 0.018231824 0.02274293
0.03534783 -0.04836127 -0.0017644597 -0.015796127 -0.04394738 0.021160327 0.02336528 -0.025055429
-0.012743395 -0.020854747 -0.027942551 -0.02213304 -0.012248555 -0.012776044 -0.015156003 -0.029635353
-0.016840748 -0.0029243566 -0.0021426557 0.03302785 0.0028033173 0.02122983 -0.041913997 0.013514201
-0.043490116 0.027666315 -0.016527478 -0.015099943 -0.04333377 -0.008175714 -0.060600985 -0.02074334
-0.020079017 0.019500026 -0.085286215 0.042701207 0.011492767 0.016079366 -0.07743496 0.016186794
-0.017318074 -0.024679795 0.01322546 0.008095908 -0.05594715 0.008808342 -0.0114635015 0.020770002
-0.012845666 -0.044464506 -0.04178039 -0.025550317 -0.05876782 -0.014701329 -0.11113615 0.013706622
0.00791295 0.0070253103 0.024454845 -0.07715541 -0.02098775 -0.06016956 -0.01841601 0.010752809
-0.021996032 0.021060463 0.029782822 -0.06493323 -0.011200258 -0.08139954 -0.015693035 -0.031646013
-0.097006485 -0.011451768 0.022987451 -0.04297428 -0.015394234 0.017404905 -0.02413016 0.02227975
-0.049176276 -0.0099125635 0.046367105 -0.029774511 0.024103802 0.022622015 -0.029678833 -0.10084851

attn_net.out.bias f4 [64]
00000000: c6e3 593d 9acf fd3c 14b2 5a3e 6cc8 833e
00000010: 808c 8d3e 264d 3c3e 923f ab3c a0c9 ca3c
00000020: d2b2 5f3e 0a08 3c3c 0812 293d 045c 39be
00000030: 0e4f 883e f46f 9e3d acb8 1c3e 497a 743d
00000040: 7a2d 33be b889 58be 10e9 85bc 6cd1 923e
00000050: 18e3 9e3d 1161 1e3b c3e6 903d 8cea 8e3d
00000060: 5a6a a6be 48d3 4c3e c8a8 483b 50e5 473e
00000070: 7b71 c33e 37e9 6fbe 5578 bd3d 139e a9bc
00000080: 1c54 3f3d 53f5 ac3d df9c c9bc 2626 be3d
00000090: 00c8 383e e32e b53c b222 143c d279 1e3e
000000a0: 2c5a 343a 7ca2 f8bd 6a4e 783d 2487 003d
000000b0: e916 743d 74ae 2a3e 55d0 d33e c1a3 d33d
000000c0: 7096 f73d 13e0 8f3e f6d8 0ebe bad2 a43e
000000d0: 831e 9c3c 62a1 ab3d a9b5 2abd f048 533e
000000e0: a067 f1be 5efd ca3d b1b9 6c3c b5ed 313d
000000f0: 32b8 473e 8805 13be 09a9 283d 4872 40bb
0.053195737 0.030982781 0.21356994 0.25738847 0.27646255 0.18388805 0.020904336 0.024754345
0.21845558 0.011476526 0.04127696 -0.18101507 0.26622814 0.07736197 0.15304822 0.059686933
-0.17497817 -0.21146286 -0.016346484 0.286754 0.077581584 0.0024166743 0.07075264 0.0697833
-0.32503015 0.20002472 0.003061818 0.1952107 0.38172516 -0.23428808 0.09251467 -0.020705258
0.046711072 0.084452294 -0.024610935 0.0928462 0.18045044 0.022117084 0.009041475 0.15476158
0.0006879892 -0.121403664 0.060621656 0.03137888 0.05959216 0.16668111 0.41369882 0.10333968
0.120892406 0.28100643 -0.13949952 0.32192022 0.019057518 0.08380391 -0.04167715 0.20633292
-0.47149372 0.09911607 0.014448569 0.043439586 0.19503859 -0.14357579 0.04117683 -0.0029364992

linear.weight f4 [64, 8]
00000000: 8a39 63bc fe7a f33c d620 7e3d b6bb 88bc
00000010: 1c90 883d 702e c83d 83b7 77be 5347 a6bc
00000020: 51fd 9cbd 510a 83bd 4c70 95bc 48ae 203b
00000030: 247c a03d 0ba8 5bbd 14cc e1bc a9c1 6bbd
00000040: acd7 98bd 2b5e 2b3d e73d 0b3e 6de2 8e3a
00000050: 6253 0a3d 435f 053e f23b 263e 9eaa b8bb
00000060: 0b01 503f 90a3 2abc 1be9 893c b5b7 893f
00000070: 2603 2bbf b85f 6d3e fcb1 8c3f c17b 263f
00000080: 68d1 3fbf 4d4c b23d 7edf 2bbb 7987 51bf
00000090: 7297 2b3f a5c0 48be 349d 8cbf e865 02bf
000000a0: e02c 613f c06b 10be d91d 47be d097 993f
000000b0: eaca 82bf 6450 783e c305 923f 6865 4d3f
000000c0: e06f dcbd f8a5 a8ba 363c 823d c4bf 1c3e
000000d0: a4a5 5bbd c48c 323d fc54 1cbd 797a 97bc
000000e0: f692 483e e310 c2bc 7df3 1dbe be04 eabb
000000f0: 043d a5bd eb9d 383e b42b 5c3d 520d 6dbd
00000100: 7b8d 33bf 94a4 513e 051f dc3d 86d3 81bf
00000110: 8a5c 203f c186 ebbc ee18 94bf 14a1 1ebf
00000120: 8005 6fbd 97f8 abbd a5ac f7bd 6f8d 65bc
00000130: 022d 1f3d dae8 4b3c 505f 3bbd e3d7 f63d
00000140: 4903 84bd 2f24 88bd c24c 443d 2dd3 0cbd
00000150: cc75 223d bb61 10be c7aa e7bc ea16 d2bc
00000160: 7871 12be 99a2 953d 4c07 803d 9063 9d3d
00000170: 6c78 cdbd 6c6a e33d b170 15be 503b 973d
00000180: 5dd9 77bf a739 453d f7e3 e13d 6c93 97bf
00000190: 8937 693f a322 95be f289 9dbf 14de 4ebf
000001a0: 6744 8d3d 5a07 e4bc e85a 2c3c 3eb7 0c3d
000001b0: 683a 453c 854a 473c 64ae ef3c 39fb 093d
000001c0: 5382 6c3e 8727 103d dc81 a43d 11bf c23e
000001d0: a05b 03be 19bb fb3d 34dd ec3e 2c71 563e
000001e0: f681 28be 38b8 8f3c 0dc0 093e 48a9 a7be
000001f0: 217a 6e3e da88 543d 3c77 5ebe 78b7 04be
00000200: 980d a13d 2d2f a93d c6af f2bd 9ed8 b8bd
00000210: 366f 44bd 44b5 04be 5b28 233d 0879 f33d
00000220: 0b11 e1bd 869e 0d3e 87d5 08be 46ba 083e
00000230: 34b0 903c 43b5 d13a 4f04 ba3b 8d5d 3f3d
00000240: 4bcc 983d ca13 043e 03b4 f43d db89 00be
00000250: ce81 30bd e486 fc3d e73e 953c f679 fcbd
00000260: 6082 2cbf 834e e73d e83e 94bc 8d88 6ebf
00000270: 913c 1e3f 40da 52be a9b3 76bf 1f95 24bf
00000280: 50f2 6639 8b00 b83d 98f4 b1bd 2ef4 43bd
00000290: aba2 acbd 79a4 c0bc a9e8 8e3d 6620 a8bd
000002a0: 5626 bd3d cba5 e9bc 26fd a7bc a396 43bd
000002b0: fff8 7a3d 5c32 803d 6d5e 143d e7a5 d2bd
000002c0: b5e7 a33d ef0c 853d 8861 9f3d efeb 8bbd
000002d0: 64c7 8bbd 3d51 80bd 90c0 2a3c 28bc 2abe
000002e0: 1ffb 583f 8de7 fbbd 3ab3 a4bd e7d4 853f
000002f0: 1fa3 6fbf 97d9 673e c7bf 9e3f 9f0c 353f
00000300: fecd 21bd 4e77 43be a1e9 7d3d 4ed8 76bd
00000310: e079 15be 284f 7fbd 13e0 dcbd be9f 3abd
00000320: c6ea bbbe 1c96 17be 10bc 20be 3a12 f9be
00000330: 94c3 d03e 3e44 853a cf89 edbe 2600 80be
00000340: 83e3 50bf d154 d43d d555 3b3e c246 8cbf
00000350: b2e5 763f 849f 95be b26c 86bf 647f 39bf
00000360: 022d 60bf d2a8 783e d4ef ab3d b974 a4bf
00000370: 8f93 6d3f dde5 8cbe a88a 84bf 2c33 55bf
00000380: 428b 77bf cd6d 293e 8f36 453e 0c86 99bf
00000390: 0f78 8d3f 7b08 aebe 1980 a5bf 4215 6abf
000003a0: a411 d43c 2eaa 83bd cc88 053d 568c 433d
000003b0: 7697 dcbd 567a ea3d 25bf 133d 16f9 123d
000003c0: f68c 7ebe 1a75 fd3d df5a a5bc 0274 f1be
000003d0: bfca fe3d a9b2 58be 529c bfbe a0ad f6bd
000003e0: 2e8d 473d 2ae1 4b3b b22f b0bc 3559 663d
000003f0: 30b8 46bd 8f1e 8abc 834c 973d 8fec 333d
-0.013868699 0.029721733 0.062043034 -0.01669107 0.06668112 0.09774482 -0.24191098 -0.020297682
-0.07665504 -0.06398452 -0.018242024 0.0024517942 0.07836178 -0.053627055 -0.027563132 -0.057557736
-0.07463011 0.041837852 0.13597833 0.001090122 0.033770926 0.1302462 0.16233805 -0.0056355735
0.8125159 -0.010414973 0.016834786 1.0759188 -0.6680168 0.23181045 1.0991817 0.65032583
-0.74928904 0.087059595 -0.002622574 -0.8184734 0.6702796 -0.19604738 -1.0985475 -0.50936747
0.879591 -0.14103603 -0.1944498 1.1999454 -1.0218174 0.24249417 1.1408008 0.8023286
-0.10763526 -0.0012866845 0.063591406 0.15307528 -0.053624764 0.043591276 -0.038166985 -0.018491017
0.19587311 -0.023689693 -0.15424915 -0.0071416786 -0.080682784 0.18028991 0.053752616 -0.05787403
-0.7013776 0.20472938 0.10748104 -1.0142677 0.62641203 -0.02875078 -1.1570108 -0.61964536
-0.058354855 -0.08397024 -0.12093476 -0.014010771 0.038861282 0.012445653 -0.045745194 0.12052896
-0.06445939 -0.066475265 0.047924764 -0.03438108 0.03966312 -0.14099781 -0.028279675 -0.025645692
-0.14301097 0.07306404 0.06251392 0.07685006 -0.10032734 0.11104283 -0.1459377 0.0738436
-0.96816045 0.048150685 0.11029809 -1.1841865 0.91100365 -0.29127988 -1.2307723 -0.80807614
0.06897812 -0.027835537 0.010519721 0.03435444 0.012037851 0.012163763 0.02925796 0.03368685
0.2309659 0.035193946 0.08032581 0.38036397 -0.12827921 0.122915454 0.46262515 0.20941609
-0.16455826 0.017543897 0.13452168 -0.3274634 0.23288776 0.051888324 -0.21725172 -0.12960613
0.07863921 0.08260951 -0.118499324 -0.090256914 -0.04795762 -0.12959772 0.039833408 0.11888319
-0.10989579 0.13830003 -0.13362704 0.13352308 0.017662145 0.0015999455 0.005676783 0.046720076
0.07460841 0.12898174 0.11948397 -0.12552588 -0.04309254 0.12330416 0.01821847 -0.1232795
-0.67386436 0.11294272 -0.018096402 -0.9317711 0.61811167 -0.20591068 -0.9636789 -0.6429004
0.00022024778 0.089844786 -0.08689231 -0.04784029 -0.08429464 -0.023515927 0.0697797 -0.082093045
0.092358276 -0.028521439 -0.020506453 -0.04775108 0.061272617 0.06259605 0.036222864 -0.102855496
0.08003179 0.064966075 0.077822745 -0.0683211 -0.0682514 -0.06265495 0.010421887 -0.16673338
0.8475818 -0.12300024 -0.08041997 1.0455598 -0.9360828 0.22641598 1.2402276 0.70722383
-0.03950309 -0.1908848 0.061990384 -0.060264878 -0.14597273 -0.06233135 -0.10784926 -0.0455625
-0.36702555 -0.14803356 -0.1569674 -0.48646718 0.40774214 0.0010167432 -0.46394202 -0.25000113
-0.81597155 0.1036774 0.18294461 -1.0959094 0.9644424 -0.29223263 -1.0501921 -0.7246001
-0.87568676 0.2428315 0.08395353 -1.2848121 0.9280328 -0.27519122 -1.0354815 -0.8328121
-0.96696866 0.16545792 0.19259094 -1.1994033 1.1052264 -0.33990845 -1.2929717 -0.91438687
0.025887318 -0.064289436 0.032601163 0.047741257 -0.107710764 0.11449115 0.03607096 0.035882078
-0.2485846 0.12375851 -0.020184932 -0.4715882 0.124410145 -0.21161903 -0.3742395 -0.12044835
0.048718624 0.003110955 -0.021507118 0.05623742 -0.0485155 -0.016860275 0.0738764 0.04392677
